05. Deep Q-Network/checkpoint.pth (torch_old, 21023 bytes, 6 tensors)

fc1.weight f4 [64, 8]
000000 d7 74 9c be 8d 3a 86 3e ec f0 f5 be 74 f4 00 bf
       -0.30557892 0.26216546 -0.4803537 -0.50373006
000010 61 7c 2d 3e 0d fb c4 3e 01 46 51 3e 9d 70 8c 3e
       0.16941978 0.38472787 0.2043686 0.27429667
000020 27 b0 93 bf 01 61 ce bd 68 7e 31 3e b1 f8 c6 be
       -1.1538132 -0.10077096 0.17333376 -0.3886161
000030 1e e0 83 be 83 24 48 3e 37 8a 51 bd f3 58 94 3e
       -0.25756925 0.19545178 -0.051157203 0.28974113
000040 78 9d 50 3e b3 95 51 3e 80 8f df 3d ea ca 87 3e
       0.2037257 0.20467262 0.10916042 0.26522
000050 fc e2 18 3e 66 c1 81 3f 6f 10 c7 3d e0 3f a3 3e
       0.14930338 1.0137146 0.09719931 0.3188467
000060 e2 7f 86 be f0 3a 29 3f c1 92 69 3f a6 e4 ef bf
       -0.26269442 0.66105556 0.91239554 -1.8741653
000070 91 0d f7 be 16 8c 34 3d 78 25 bb 3d f9 ea 82 3e
       -0.48252538 0.04407891 0.09138006 0.25569895
000080 52 f0 e3 be 65 20 00 3c c2 d0 ad bc 37 cf aa bc
       -0.44519287 0.007820223 -0.021217708 -0.02085076
000090 c0 e3 bb 3d 63 fa 60 3e c5 23 a8 3e c9 c5 8a 3e
       0.09174299 0.21970515 0.3283979 0.27104023
0000a0 62 9d 11 be 4a 1f ab be 21 31 e6 3d c3 ed d5 be
       -0.14220193 -0.3342231 0.11239839 -0.4178296
0000b0 35 80 f1 bd ca 6f 6f bd ba b5 d4 3e 89 de ce 3e
       -0.11792032 -0.05845622 0.41544896 0.40404156
0000c0 6f b2 ed be b8 f7 50 bd bd 9b bd bd 64 76 a0 3d
       -0.46425197 -0.051017493 -0.0925822 0.07835081
0000d0 2f 16 07 be c1 c1 a9 3e f2 74 b7 3e 31 76 5b bf
       -0.13192056 0.33155635 0.3583141 -0.8572722
0000e0 3a 75 9a bd ae 15 34 bf 7b c6 db be d7 a6 5e bf
       -0.075418904 -0.7034558 -0.42924866 -0.8697333
0000f0 7f ed 82 3e b0 93 20 3e 58 79 ba b9 86 94 97 3c
       0.2557182 0.15681338 -0.00035567093 0.018503439
000100 dd f9 88 3d ab 49 14 3e 9c 9d 3c 3c ea 26 15 3d
       0.06688283 0.14481227 0.011512186 0.036414064
000110 8f 40 fc bd b7 37 66 3f e3 08 12 3e 1a fc 69 bf
       -0.12317001 0.89928764 0.14261203 -0.914003
000120 72 8f e7 3e af ab fc 3e b6 b9 db 3e 21 44 18 3f
       0.45226628 0.49349734 0.42915124 0.59478956
000130 84 27 10 bf 3b 9d fc be 5b 0c 16 bf 22 43 34 bf
       -0.56310296 -0.49338707 -0.586126 -0.70414937
000140 4a 0c ca be 37 7e 18 3f 56 1a 35 3e f7 40 99 bf
       -0.394625 0.5956759 0.17685828 -1.1972951
000150 ee 3b 43 3e d0 ad 5d be f8 f6 a0 3d c7 a6 3b be
       0.1906583 -0.21648335 0.078596056 -0.1832534
000160 72 e4 da be 26 95 ab bd 42 b0 ad be 0b 60 67 3d
       -0.42752415 -0.08378057 -0.33923537 0.056488078
000170 64 47 23 3f bc 72 4d 3e b0 dd e8 bd 50 4f 5c be
       0.6378081 0.20063299 -0.113704085 -0.2151463
000180 2e 09 b2 be 0e 3b 86 bd 4b 86 97 3e 31 a1 88 3f
       -0.3477263 -0.065542325 0.29594645 1.0674192
000190 81 b2 48 bd c9 32 b9 3e 55 6e 2a 3f 5d dc 21 3d
       -0.04899836 0.36171558 0.66574603 0.039516795
0001a0 b2 98 5f bf ad e4 34 bd 12 23 ce be 4c 28 93 be
       -0.8734237 -0.044163395 -0.40261132 -0.28741682
0001b0 06 31 b0 3e 2e 9f 99 bd 1e ba 0c 3d 53 11 a2 3e
       0.34412402 -0.07501064 0.034357183 0.31653842
0001c0 79 3e 9a be 39 cf f8 3e 7f 54 76 3f ab 81 a5 bf
       -0.30125788 0.48595598 0.9622268 -1.2930197
0001d0 80 6b 2e be dc 7f 52 be 82 63 a4 3e 27 5e 17 3e
       -0.17033195 -0.20556587 0.32107168 0.1478201
0001e0 3b c0 d7 3d da 6b f5 3d f6 fe 30 be db 0b cd bb
       0.10534712 0.11983462 -0.1728476 -0.006257517
0001f0 5d 01 a7 3c 9b 54 8e bf e3 f1 45 bf aa c1 46 3e
       0.020386392 -1.111957 -0.77322215 0.19409814
000200 66 46 a4 be 97 5a 90 be ac 82 b5 3d 6e 8c ac be
       -0.3208496 -0.28194115 0.08862814 -0.3370089
000210 3f 90 5d be 27 76 e4 3b 97 4e e1 3e 30 9c c7 3c
       -0.21637057 0.0069720927 0.44005272 0.024366468
000220 3a 2e 82 bd 63 20 8a 3d dc 4e ed 3c 7c 3f 2c 3f
       -0.06356473 0.067444585 0.028968267 0.6728437
000230 84 83 0e 3f 0e 8b f1 3e fc 39 40 3f 1b 32 dc be
       0.55669427 0.47176403 0.7508848 -0.43006977
000240 f0 55 07 bf 41 01 8b bf 73 c5 23 3c fa 3e f2 be
       -0.52865505 -1.0859758 0.009995806 -0.47313672
000250 8c e4 50 bf 58 b2 07 bf d9 4e c9 be b7 1f 99 3b
       -0.81598735 -0.53006506 -0.39317968 0.00467297
000260 bf cb aa bd 8b 80 93 3e b0 b9 c9 bc df 34 7e bf
       -0.08339643 0.28809008 -0.024624676 -0.99299425
000270 a7 8a 29 3f f1 21 55 bf 20 c4 1a 3e 9c c0 f4 bd
       0.6622719 -0.83254915 0.15113878 -0.119508
000280 8a fa 57 bf ff dd 42 be a2 7f e1 bc df ab 01 bf
       -0.8436667 -0.19029997 -0.02752668 -0.5065288
000290 80 af 9a 3e c5 65 28 be 02 e1 cd be 2a d8 b7 3e
       0.3021202 -0.16445072 -0.4021073 0.35907108
0002a0 46 31 c6 3e 2a a8 60 be f6 a6 9c 3f ab 2b 4a bf
       0.38709468 -0.2193915 1.2238452 -0.7897288
0002b0 a6 ce 55 3e a4 53 86 3e 0a 5f e9 bd 72 ef 2b 3e
       0.20879611 0.26235688 -0.113950804 0.1679056
0002c0 6f 4c 58 be 39 3b 18 bf a5 f4 14 3f 14 46 33 be
       -0.21122907 -0.59465367 0.581858 -0.17507201
0002d0 91 76 c4 bd f4 ef 2d be a5 cd de 3e 1f 95 32 3e
       -0.09592927 -0.16986066 0.4351627 0.17439698
0002e0 42 b4 0f 3f cd 8f 0c bf 71 1c bf bd 7a df 32 3e
       0.56134427 -0.5490692 -0.09331597 0.17468062
0002f0 0d ec 2f bd 0e 74 95 3c 0e 9f f0 3e bf d0 5a 3e
       -0.042949725 0.018243816 0.4699635 0.21368693
000300 f6 61 52 bf 2c 7e 35 be 3a 7d 67 bd eb 2c b3 3e
       -0.82180727 -0.17723912 -0.05651591 0.34995207
000310 15 91 29 3e a6 83 1a be 34 5e 97 3d 09 05 5e 3e
       0.1655925 -0.15089282 0.07391015 0.21681608
000320 60 3f 97 bd 73 79 94 bd 82 3c 03 3d f7 5d 89 3f
       -0.07385135 -0.07249727 0.032040127 1.0731801
000330 00 28 cb 3d 3a 7c 01 3f bb 34 ab 3e 44 9a d5 3e
       0.09919739 0.5058018 0.33438668 0.41719258
000340 2e f0 6f 3e 0b 51 28 bf 83 a9 b5 3e 9c e0 7b bf
       0.23431465 -0.6574866 0.3548089 -0.983896
000350 c9 f6 6f bc 76 57 ea 3d 19 d7 d2 3d 99 11 7c 3d
       -0.0146462405 0.11442463 0.10294933 0.06154022
000360 63 f1 b5 3e 0b bd 45 bf 16 b2 4e 3f d2 bc 6c bf
       0.35535726 -0.7724158 0.8074049 -0.92475617
000370 45 13 13 3e 4a ac 88 3d 7f e1 2a 3d 49 5f 36 3e
       0.1436282 0.066734865 0.041718956 0.17809786
000380 29 3f 91 be 83 01 34 3f 15 74 32 bf 81 ca 95 bf
       -0.283685 0.70314807 -0.6970838 -1.1702424
000390 b8 b7 5c 3b 6d 1d 8d be 79 66 9c bc f9 5a 8f 3e
       0.003367884 -0.27561513 -0.019091832 0.27999094
0003a0 02 58 bd bd 1d 50 e3 ba 23 08 b2 3f 23 7d a9 bf
       -0.09245302 -0.0017342601 1.3908733 -1.3241314
0003b0 bb 62 1f 3f 48 59 b0 be 30 b7 23 3e da 51 a5 3e
       0.62260026 -0.34443116 0.15987849 0.3228901
0003c0 02 e5 eb 3e c9 20 48 3d 63 67 28 3f 56 bb 4b be
       0.46073157 0.04885939 0.65782756 -0.19895682
0003d0 3a aa eb be 17 3c 83 be 00 55 b9 3e 7b bd a4 3e
       -0.4602831 -0.25631782 0.36197662 0.32175812
0003e0 ae b5 ad be de 46 aa be ad 9d 8b be 19 5e 1d bf
       -0.33927673 -0.33257192 -0.27268735 -0.61471707
0003f0 f0 f7 ab 3e af e2 93 bd bf c2 32 3d 17 24 09 be
       0.335876 -0.07220971 0.043642756 -0.13392673

fc1.bias f4 [64]
000000 c8 47 af be fd 2c 70 be 4c 7e 5b be f9 d3 80 bc
       -0.34234452 -0.23454662 -0.21434897 -0.015726076
000010 32 70 77 be 6c 8f a6 bd 9a d2 d2 3c f6 25 73 be
       -0.24163893 -0.08132824 0.025735188 -0.2374495
000020 05 c5 4f be 43 b8 13 3e a1 4b 22 3f 36 2e d2 be
       -0.2029 0.14425759 0.6339665 -0.4105088
000030 32 37 8f be 29 72 b5 be e5 1f 11 3f d7 2c 90 be
       -0.27971798 -0.3543866 0.5668929 -0.2815921
000040 f3 6e 9a bd e4 20 a4 be ea 20 cf 3e 61 44 12 3f
       -0.07540693 -0.32056344 0.404548 0.5713559
000050 82 e4 d6 be c0 fc 81 be 7b 2b f2 be 6b c7 22 be
       -0.41971213 -0.25388145 -0.47298798 -0.15896384
000060 37 bc 96 be 48 39 be be 60 47 b0 be 34 fd a7 be
       -0.29440472 -0.37153077 -0.34429455 -0.32810366
000070 2b 7b 75 3e f8 2f 56 bb 5e be bb be d2 1d cd be
       0.23972766 -0.00326824 -0.36668676 -0.40061814
000080 87 2e 59 be 87 26 b4 3e 56 b9 cf 3d 4d 01 d1 be
       -0.21209155 0.35185644 0.10142772 -0.40821305
000090 e7 81 a5 bb 31 c9 fe bd 97 be ab be 26 db d5 be
       -0.005050886 -0.12440718 -0.33543846 -0.4176876
0000a0 ea 8f 2c 3e b2 25 a3 be 3c e5 6f 3e ee 8f 9c bc
       0.16851774 -0.31864697 0.2342729 -0.0191116
0000b0 5f 87 cc 3d 8a de de be 50 8e e5 3e e6 8e 13 3e
       0.099867575 -0.4352916 0.44835138 0.1440998
0000c0 09 16 cd 3c e7 62 6a be 45 c1 32 bd 98 2e 13 3f
       0.025034921 -0.22889291 -0.043641347 0.5749297
0000d0 67 b9 30 be e1 65 30 3f 44 71 e2 be 9b 89 af bc
       -0.17258225 0.68905455 -0.4422704 -0.02142792
0000e0 20 c7 ba bd 7b 8d b4 3d 57 63 d8 3e 94 05 6a be
       -0.09120011 0.08816048 0.4226329 -0.2285369
0000f0 3f 50 30 be 5a 90 89 be ce 65 81 3e 25 bf 44 3f
       -0.17218111 -0.26867944 0.25272983 0.76854163

fc2.weight f4 [64, 64]
000000 83 1b c0 3d be 01 34 3e fc 16 98 ba 55 ff aa 3e
       0.093802474 0.1757879 -0.001160353 0.33397928
000010 13 d6 9e 3c b6 0a d9 3d f1 1d 8d 3e 18 c4 30 bd
       0.019389188 0.10597746 0.27561906 -0.04315576
000020 9f 70 2d 3e ba 25 ff 3e ad 91 3e 3d db 35 e2 3e
       0.16937493 0.4983347 0.046525646 0.44181713
000030 30 e7 c9 3e 6c 6b 0f 3f a1 b5 f3 3d ca ab b9 3e
       0.39434195 0.5602329 0.11899877 0.36263877
000040 b2 42 c9 3d d8 38 09 3f 0f b9 d8 3d dd 11 dd bd
       0.09827174 0.5360236 0.10582172 -0.10794423
000050 3e 00 29 3f 25 33 ca 3e 11 3b 2a 3f 63 ab b9 3d
       0.66015995 0.39492145 0.6649638 0.090658925
000060 2c 69 a6 3e 6d 0e c1 3d a2 7c 88 3f d2 cc dd 3e
       0.32502115 0.094265796 1.0663035 0.43320328
000070 12 06 00 be 05 6f ae be 5d f9 07 3f d0 31 ca 3e
       -0.12502316 -0.34069076 0.53114873 0.3949113
000080 31 20 28 bc 7e 51 07 3f b0 e1 9f be 4f cb 35 3d
       -0.010261581 0.5285872 -0.31226873 0.044383343
000090 58 80 88 be 77 fb e6 3e 30 9d 35 3d 8a 1a ab 3f
       -0.2666042 0.45113727 0.04433936 1.3367474
0000a0 30 1d 5e 3e b2 26 60 3d 97 a7 0e 3f c0 85 73 bf
       0.21690822 0.054724403 0.5572447 -0.9512596
0000b0 c1 65 e4 3c ab c2 d2 3e 03 9a 0f 3f 16 36 df bb
       0.027880551 0.41164145 0.5609438 -0.0068118675
0000c0 3b c8 ac be 12 da 04 3f 5b 4b 9b 3e 66 a2 02 bd
       -0.33746514 0.5189525 0.3033093 -0.031893156
0000d0 0d f3 a4 bd 52 f7 5c be b8 71 8a 3f 19 8c 75 3e
       -0.08054171 -0.2157872 1.0815954 0.23979224
0000e0 e7 d8 b9 3d d5 67 21 3e e8 ec 84 3d 90 1a ab 3e
       0.09074574 0.15762265 0.06490499 0.33418703
0000f0 4a db e0 3d ce 4e a9 3e 5c ff 95 be cb 70 aa be
       0.10979326 0.33067936 -0.29296386 -0.3328918
000100 96 ee d4 bd 5e 76 95 3e b1 ab c2 3d a6 68 f5 3e
       -0.10397069 0.2919187 0.09505404 0.47931403
000110 a9 a9 71 bb e5 0d c5 3e 08 93 33 3e 76 2d d9 3e
       -0.0036874807 0.38487163 0.17536557 0.42417496
000120 9f ba 2a 3e 5f e0 b1 be 16 d4 a1 3e 1d 0f 61 3e
       0.16672753 -0.34741494 0.3160712 0.21978422
000130 8d 03 c5 3e 2a c7 c1 3e 07 b3 67 3e f9 af b6 be
       0.38479272 0.37847263 0.22626887 -0.3568113
000140 89 23 11 3e 0f 61 e0 3e 1a 5b 13 3c b2 61 0d 3d
       0.14173712 0.4382405 0.008993888 0.034516998
000150 bc 6f 85 3f 4a 27 a4 3e c9 1b fa 3e 00 15 2b bd
       1.0424724 0.32061225 0.48849323 -0.041768074
000160 da 8f f0 3e b5 6d 83 3e 39 42 7c 3f 9b 06 02 3f
       0.4698475 0.25669637 0.9853855 0.5079133
000170 a2 87 af 3d 7d dd a8 3d 84 b8 0b 3e fd 3a 2a 3f
       0.08570792 0.082453705 0.13644606 0.6649626
000180 e4 0f 79 3d b9 e6 10 3f 72 20 88 bd 3e 9a 1a 3e
       0.06080617 0.56602055 -0.066468135 0.15097901
000190 68 91 7a be a9 65 98 3e ca 4f af 3d 1a d6 3c bc
       -0.2446953 0.2976506 0.085601404 -0.011525655
0001a0 fc e4 93 3e db 96 8e 3d 4a ba c2 3e 73 b2 a9 be
       0.2888564 0.06962367 0.38032752 -0.33143958
0001b0 65 32 81 3e 22 d1 7b 3e 55 ee 17 bf c9 9d 91 3e
       0.2523376 0.24591497 -0.5934804 0.28440693
0001c0 ce 48 5d 3d 7e a8 21 3f 1b f7 f7 3c 3e 36 25 3d
       0.05402451 0.63147724 0.030269196 0.040334933
0001d0 c4 23 af bd 11 21 8d 3d 94 d4 20 3f 0f 54 48 3e
       -0.085517436 0.068910725 0.6282437 0.19563316
0001e0 ea d0 a7 3d 51 a5 d7 be c3 66 cb 3d 33 4d 4e 3e
       0.08194144 -0.42118314 0.099317096 0.20146637
0001f0 4e 4a e9 3d 59 d4 e1 3e 0b 03 91 be d9 0a 97 be
       0.113911256 0.4410732 -0.28322634 -0.29500464
000200 28 fc d7 3d b5 56 31 3e ca e6 8a bd ca 61 26 3f
       0.10546142 0.17318232 -0.06782301 0.64992964
000210 4e f0 cb bd e3 4f a0 3e 58 13 a2 3e 63 d1 b7 be
       -0.09957944 0.3131095 0.31655383 -0.35901937
000220 f5 7e ab be 3c 0b 94 3e 2e 05 bb 3d 22 44 1c bf
       -0.33495298 0.2891482 0.09131847 -0.6104146
000230 49 f4 9b bd 84 75 32 3d ef 4c df 3e b4 bd 3e be
       -0.07614953 0.043569103 0.43613383 -0.18627053
000240 b9 c5 4d 3e bc 75 ea bd ae dd a2 3e b3 47 82 be
       0.20094956 -0.11448237 0.31809753 -0.25445327
000250 64 3a aa be 13 bc 2e bf 67 0d 18 3f 04 e4 09 3e
       -0.33247674 -0.6825573 0.5939545 0.13465887
000260 d7 02 56 3d c9 5a 34 be 03 b2 c3 bc 58 8a 1d bf
       0.052248802 -0.17612757 -0.023888594 -0.6153922
000270 a6 98 1a bf 31 3b 21 3f 8f b5 42 be f2 08 d8 be
       -0.60389173 0.62980944 -0.19014572 -0.42194325
000280 57 f4 d4 bd 52 b9 21 3f 8a a5 7c bf 96 35 85 bf
       -0.103981666 0.631734 -0.9869009 -1.0406978
000290 10 cd a2 bf ad 3b ba 3d cc f7 ca 3d 43 f4 02 be
       -1.271883 0.090934135 0.09910545 -0.12788491
0002a0 bf 95 cf 3d 0e 27 11 3e 6f 2b 08 3f af e4 63 3e
       0.10135984 0.14175054 0.53191274 0.22255205
0002b0 8f 21 a5 bd fd f5 80 bf bf 45 04 bf 5d 11 37 3f
       -0.080630414 -1.007507 -0.51668924 0.7151087
0002c0 95 76 66 3f 2c 4c a0 3e 24 5a 99 3d 69 ab 18 bf
       0.9002469 0.31308115 0.07487896 -0.5963655
0002d0 00 fe 59 be 30 b3 fb 3d 59 05 b3 3d 1c 79 38 be
       -0.212883 0.12290037 0.08741254 -0.1801495
0002e0 9d 01 83 be cf ac 90 be e7 9a 5d bd 5d a3 1b 3e
       -0.25587168 -0.28256842 -0.054102805 0.15199037
0002f0 22 12 39 3e 0f d4 3b 3e c3 89 1a 3e 61 70 c6 3e
       0.18073323 0.18342613 0.15091614 0.38757613
000300 d7 63 e0 bd 19 55 24 3f 05 b4 2c 3e 71 33 45 be
       -0.10956543 0.6419235 0.16865547 -0.19257905
000310 4b e9 45 3e db 37 f7 3e 28 2d d6 3e 7c a7 78 3e
       0.19327275 0.48284802 0.41831326 0.2428264
000320 db 5f b0 3e d2 a6 1f bd 54 a8 a6 3e d4 fa 8b bb
       0.34448132 -0.03897745 0.325503 -0.0042718444
000330 98 4f a8 3c 74 08 b3 3e 25 0d 86 3e dc d3 55 3f
       0.020545766 0.34967387 0.26181903 0.83526397
000340 4e 9f c8 3e cd e9 c8 3e 77 00 4c be 71 cf 1b 3e
       0.3918404 0.39240876 -0.19922052 0.15215851
000350 b1 be 86 3f 1e 06 47 3f 1e e1 e0 3e f7 af d8 3d
       1.0526944 0.7774371 0.4392175 0.10580438
000360 90 b9 af 3e 8f 87 98 3d 74 4a 9e 3f 4e 51 16 3f
       0.3432126 0.07447731 1.2366471 0.5871781
000370 25 9b b3 bd 91 39 b3 be 14 3a ed 3e 38 23 2b 3f
       -0.08769826 -0.35004857 0.46333373 0.66850615
000380 69 b9 00 3e f1 1c 54 3c d7 4a b0 3e 3d 88 6a 3c
       0.12570728 0.012946353 0.34432098 0.014314708
000390 2c ed 36 bf 38 3d 18 3f 06 90 fe 3d ff fa 62 3f
       -0.71455646 0.5946841 0.12429814 0.8866424
0003a0 e9 73 f2 3d 74 87 84 3d ec e2 08 3d 19 b6 6c bf
       0.11838514 0.06471148 0.033419535 -0.9246536
0003b0 f4 ea c0 3d c3 76 d1 bd 82 25 68 3e 7d 57 0a 3f
       0.09419814 -0.1022773 0.22670558 0.54039747
0003c0 ef f5 85 bf ad 80 04 3f 19 fb d2 3d d0 8a 06 3e
       -1.0465678 0.51758844 0.10301799 0.1313889
0003d0 47 9a 08 3f f8 a8 7b be 26 99 5d 3f e6 86 f7 3e
       0.5336041 -0.24576175 0.8656181 0.48345107
0003e0 49 fd e8 3e 50 f9 99 3e 73 65 6b 3e 25 1e c5 3e
       0.4550574 0.30073023 0.22987919 0.3849956
0003f0 27 cf 26 3d 45 65 ac 3e 05 c1 23 bd fa 03 7f be
       0.0407249 0.33671013 -0.039979 -0.2490386

fc2.bias f4 [64]
000000 b3 98 ec bc 96 a2 53 bd 87 6e cd 3d 5a e6 0e 3e
       -0.028881406 -0.051668726 0.10030847 0.1395506
000010 03 4d 88 3e f8 40 42 3d b2 93 b1 3e de ad 1f be
       0.26621255 0.04742524 0.34682995 -0.15593669
000020 c7 f2 27 b9 68 3d cf bd 24 41 2c be af 2f 0a be
       -0.00016016803 -0.10119134 -0.16821724 -0.13494752
000030 40 93 10 be b0 b3 26 be 63 51 f3 3d fc 03 77 3f
       -0.14118671 -0.16279483 0.11880758 0.96490455
000040 d4 88 5b 3e ac d2 3a bb 69 5f 5a be f0 13 49 bd
       0.21438915 -0.0028506918 -0.21325459 -0.04909128
000050 47 c9 f7 3d 94 15 d6 3d 63 b6 cb bc c1 b8 ef bd
       0.120989375 0.104533345 -0.024867242 -0.11705161
000060 c6 40 0a be 99 d4 03 be c6 84 73 be 7d 98 a2 be
       -0.13501272 -0.12874068 -0.23781118 -0.31756964
000070 e2 b8 ff bc 19 70 a9 bd 19 fe 19 3f bd e4 2c 3f
       -0.031216089 -0.08273334 0.6015335 0.67536527
000080 0c b8 10 bb 7b ef 04 bc 7c 87 1c be c1 5c ec bd
       -0.0022082357 -0.008113737 -0.15286058 -0.11541129
000090 56 68 a3 3d 15 b9 0e bd 60 12 22 be 9f 72 49 3d
       0.07978885 -0.034844477 -0.15827322 0.049181577
0000a0 3f 8a f1 bc 6d 5e 04 3d 77 59 9b bd 27 6d 29 3e
       -0.029484866 0.032316614 -0.075854234 0.16545545
0000b0 ee 58 7e be 61 67 17 3f c7 d5 15 be c3 13 1e be
       -0.24838611 0.5914212 -0.14632331 -0.15437226
0000c0 7d a4 ae bd b4 b2 25 be 3d 27 e7 bc 58 d5 04 be
       -0.085274674 -0.16181451 -0.028216952 -0.12972009
0000d0 7a 6d 23 3e a6 ea 54 3d f4 83 cb bb c4 37 81 3d
       0.1595973 0.05198159 -0.0062107984 0.063094646
0000e0 3c bb 37 3e ac cd d5 3d cc 6a 93 be 50 1b 28 3d
       0.17942518 0.104396194 -0.28792417 0.041041672
0000f0 ec 6f 1e be 53 05 ab be 16 ee 64 3f 4c e9 89 bd
       -0.15472382 -0.334025 0.8942579 -0.06733951

fc3.weight f4 [4, 64]
000000 c2 c4 cd be 75 27 7e be 05 e2 b2 3e bb 0a da be
       -0.40189177 -0.24819739 0.34938064 -0.42586312
000010 4d 1b b1 be d1 e1 e3 be 65 00 a8 3f a8 eb 13 bf
       -0.3459114 -0.44508222 1.312512 -0.5778146
000020 a8 e6 ab bd 4c 0a 1d 3d 05 53 d7 be 16 36 93 bd
       -0.083936036 0.038339898 -0.42055526 -0.071880504
000030 87 54 6d bd 23 62 b2 be bc dc 24 3f c5 8f 91 3f
       -0.05794194 -0.34840497 0.64399314 1.1372
000040 04 41 78 3f 7d 9b d4 be 34 3c 22 bf b6 be ab be
       0.96974206 -0.41524878 -0.6337311 -0.33543938
000050 8e 8a c3 be 37 d5 32 40 04 23 72 be fe a1 b3 bc
       -0.38191646 2.7942636 -0.2364617 -0.02192783
000060 d2 d5 b7 be ba 44 ce 3d 62 02 b4 3f 88 c3 18 bf
       -0.3590532 0.10071702 1.4063227 -0.59673357
000070 68 38 d7 be 1a 27 0d bf 00 49 d3 3f db 93 84 3f
       -0.42035222 -0.5513779 1.6506653 1.0357622
000080 69 c9 91 bf 38 37 b0 be 75 ab 9e be 68 40 dc bd
       -1.138959 -0.3441713 -0.30990186 -0.10754472
000090 4d 6d 9a be 77 7c 97 be b4 ed 75 ba 80 26 fe be
       -0.30161515 -0.29587147 -0.0009381429 -0.49638748
0000a0 ba ba ae be e9 a6 8a bf f6 63 83 be 2c c1 18 3f
       -0.34126836 -1.0832187 -0.25662202 0.59669757
0000b0 78 5d de 3e c0 2c 03 bd 5f a6 1b 40 44 11 c7 be
       0.43430686 -0.0320251 2.4320295 -0.3888036
0000c0 da 22 ee be 58 7a a4 be 3b 4e b2 be 5c dd 93 be
       -0.46510965 -0.3212459 -0.3482531 -0.2887982
0000d0 c8 e3 45 be c0 8d 9e be 91 6b b2 be b2 cf f0 3f
       -0.19325173 -0.30967522 -0.34847692 1.8813384
0000e0 94 16 07 bf 61 a8 ca be ad 73 1c bf f7 d9 a2 be
       -0.52768826 -0.39581588 -0.6111401 -0.3180692
0000f0 68 13 04 bf 51 80 b2 be 80 16 a0 3f 39 69 c9 be
       -0.5159211 -0.34863523 1.2506866 -0.3933809
000100 16 c6 50 be f1 9b ef be d7 fb 32 3f 17 1f d6 be
       -0.20388064 -0.4679866 0.6991553 -0.41820595
000110 0f d0 c5 be 20 3d ea be 4a 02 25 3f 2a 53 e9 be
       -0.386353 -0.4574976 0.6445662 -0.45571262
000120 2a fc e3 3d 3e d9 a3 bd 8e d6 e2 be fc 9b 35 bd
       0.11132081 -0.0800042 -0.44304317 -0.04433821
000130 a3 b3 95 3d 9d aa 82 be 34 12 5e 3f 5e a4 b9 3f
       0.073096536 -0.25520793 0.86746526 1.4503286
000140 88 ef c4 3f b2 36 a5 be d8 b5 23 3e 67 4f e1 be
       1.5385599 -0.32268292 0.15987337 -0.44005892
000150 fe 7a 9d be a3 e1 2f 40 60 3c a9 be 63 db 4d bd
       -0.30757898 2.7481468 -0.33053875 -0.05025805
000160 f7 6c d7 be 68 7c 8f 3d d5 f0 d1 3f 88 88 c1 be
       -0.4207532 0.070061505 1.6401621 -0.37799478
000170 b3 7f cb be bf ed e5 be 8d be 72 3f f7 a3 ac 3f
       -0.39745864 -0.44907948 0.9482201 1.3487538
000180 9b 85 42 bf 6e 34 07 bf df fb cc be a3 05 df 3d
       -0.75985116 -0.52814376 -0.40035912 0.10889747
000190 d0 8f 03 bf 5c d4 f8 be 8f 4c 80 3d 84 31 0f bd
       -0.51391315 -0.48599517 0.062646024 -0.03495933
0001a0 f2 48 0d bf 73 1e 49 bf 9d 61 06 bf 73 f8 c4 3f
       -0.5518943 -0.78562087 -0.52492696 1.5388321
0001b0 4f 0f 03 bf 09 c8 63 bf 6e 16 02 40 cf b2 e0 be
       -0.51195234 -0.88977104 2.032619 -0.4388642
0001c0 c6 bb ca be f0 25 fd be 8f 58 d3 be 50 14 59 be
       -0.39596385 -0.49443007 -0.41278502 -0.21199155
0001d0 32 ed 6d be a4 41 96 be f0 e0 dd be f7 1f f2 3f
       -0.23235014 -0.29346955 -0.43335676 1.8916005
0001e0 38 7c e4 be 87 ec 86 be d9 6a c6 be 20 a7 eb be
       -0.4462602 -0.2635233 -0.38753393 -0.46025944
0001f0 a9 8d cd be 50 31 9b be 63 b1 bf 3f ad 9d bb be
       -0.4014714 -0.3031106 1.4976009 -0.36643735
000200 1e 27 2b bf cf ac b3 be 6d 32 7e bf 22 f9 39 bd
       -0.66856563 -0.3509278 -0.99295694 -0.045403607
000210 9c ec 6c 3e 2f a0 0e be 89 e8 a4 3f 5e d9 01 bf
       0.23137134 -0.13928293 1.2883464 -0.507223
000220 d2 bb 8e 3d aa dd 98 3d 91 62 ca be 2d 7a f1 3c
       0.06969418 0.07464154 -0.39528325 0.029477203
000230 eb e6 26 3d 75 4c 26 bf 97 39 f1 be c6 fb b3 3f
       0.040747564 -0.64960414 -0.4711425 1.406121
000240 32 c2 04 bf 91 09 28 bf 3d 96 53 bf 92 98 ef be
       -0.5185882 -0.656396 -0.8265112 -0.4679609
000250 2e e5 05 3e 6b 16 1c 40 1a 35 14 bf d1 e7 83 3c
       0.13075706 2.4388683 -0.57893527 0.01610175
000260 a8 a0 bd be 2a 8c de 3d 82 ab e3 3f b7 b3 2f bf
       -0.37036633 0.10866578 1.7786715 -0.686336
000270 07 7a f3 be 9e bd 82 be a6 3e bb 3f b8 f6 b5 3e
       -0.47554037 -0.2553529 1.4628494 0.35539794
000280 c9 c2 7a bf 37 94 ed be 9f 86 aa be 9f 16 67 bd
       -0.9795347 -0.4640214 -0.33305833 -0.056418058
000290 ec 5b 3f bd 6e 28 e5 be f4 18 d4 3c 1c a4 ec be
       -0.046718523 -0.44757408 0.025890805 -0.46218956
0002a0 99 ab 01 bf 90 88 ab bf 2c 95 4d be 57 71 e3 3f
       -0.5065246 -1.340105 -0.20076436 1.7768964
0002b0 cf c0 23 3f eb 92 72 bf 12 55 fe 3f 4d fd 88 be
       0.6396608 -0.9475543 1.9869711 -0.26755753
0002c0 ea d5 a9 be d5 ef f0 be e1 6e 1c bf c8 7b 26 bf
       -0.33171016 -0.47057977 -0.6110669 -0.65032625
0002d0 32 d3 65 bf 55 7e 23 bf 5c a0 80 be f8 d5 f1 3f
       -0.89775383 -0.6386464 -0.25122344 1.8893423
0002e0 46 fd 53 bc d1 90 0f bf 34 49 f5 be 03 b9 b8 bb
       -0.012938803 -0.5608035 -0.47907412 -0.0056372895
0002f0 b1 cb 7a be 93 f8 5d be db 6f b0 3f 40 a3 f7 be
       -0.24491765 -0.21676855 1.3784136 -0.48366737
000300 1e 55 b6 be 33 75 fc bd 43 1f ca 3c ae d8 ee be
       -0.35611814 -0.123270415 0.02467311 -0.46649688
000310 e8 07 a1 be 7a f0 b2 be 08 f5 a5 3f 0b d7 25 bf
       -0.31451344 -0.34949094 1.2965403 -0.64781255
000320 50 47 93 3c d2 34 e8 bc 8f c7 de be 62 70 5b 3c
       0.01797834 -0.0283455 -0.43511626 0.013393493
000330 6c c3 bd bd 15 ed f2 be e2 17 69 3f ff 7e d6 3f
       -0.092657894 -0.47446504 0.9105207 1.6757506
000340 76 30 80 3f 87 20 4e be de f1 4a 3e f4 05 f9 be
       1.0014789 -0.20129596 0.19818828 -0.48637354
000350 24 d3 ac be cb 18 2c 40 40 9f bf be 40 2d 4f 3b
       -0.33754838 2.6890132 -0.37426186 0.0031612664
000360 7d 99 ce be 81 11 a3 3d 81 01 cd 3f 1e 38 de be
       -0.40351477 0.07962323 1.6016084 -0.4340219
000370 d8 05 05 bf 22 ff ff be f7 c5 df 3f 78 4b 53 3d
       -0.5196204 -0.49999338 1.7482289 0.051585644
000380 15 ee 68 bf a5 ad 99 be 2b c1 00 bf a4 61 9b bd
       -0.90988284 -0.30015293 -0.5029475 -0.07586983
000390 67 3a a4 be 39 3a f1 be 12 99 67 bd b8 86 37 bf
       -0.32075807 -0.47114733 -0.056542464 -0.7168994
0003a0 89 b8 c5 be 6b 4a 8b bf 06 92 e3 bd 80 39 03 3f
       -0.38617352 -1.0882086 -0.11111836 0.51259613
0003b0 61 ff f7 3e 18 12 22 3e dc 34 2b 40 cd d9 9e be
       0.48437026 0.15827215 2.6751013 -0.31025544
0003c0 e7 2f d5 be 7a 72 88 be b2 04 17 bf c3 5b b3 be
       -0.4163811 -0.2664984 -0.5899154 -0.35030946
0003d0 01 0a cc 3c 1f a5 7e be d0 07 0b bf f4 dc c1 3f
       0.024907114 -0.24867676 -0.54308796 1.5145555
0003e0 54 f6 41 be 72 6b d9 be 41 1f 08 bf 91 0b d9 be
       -0.18941623 -0.42464787 -0.5317269 -0.42391637
0003f0 b4 a2 bf be a7 3e 18 bf 72 9c a7 3f 03 ff b9 be
       -0.3742882 -0.594706 1.3094618 -0.3632737

fc3.bias f4 [4]
000000 a1 42 5b 3d 99 c5 84 bd 2a 47 c6 3e b9 20 a0 bd
       0.05353034 -0.06483001 0.3872617 -0.07818741
